Parte_1y2/Hito_2y3/MLP/MLP_resultados_default/mlp_model_default.pth (torch, 8428 bytes, 6 tensors)

network.0.weight f4 [32, 22]
0.22495054 -0.124332726 0.055198535 -0.23118176 0.13072857 0.20099851 -0.5857729 -0.24092995
-0.30278245 0.052021556 -0.029331855 -0.15527427 -0.021810148 -0.1838101 -0.1763403 0.16560856
0.19345042 -0.3729603 0.12678596 -0.0006310877 -0.43371087 -0.023765447 0.023740912 -0.18872124
0.27360007 0.052812506 0.13925317 -0.094544396 0.03803438 0.07569232 -0.0072756424 0.05309889
-0.13982376 -0.10554659 -0.013340422 -0.3270315 -0.29495367 0.15586783 0.36676776 0.042101227
-0.076288916 -0.010131354 0.5572714 0.02084893 -0.022829968 0.1049043 -0.20413058 -0.17737243
0.14582641 0.062412962 -0.042421427 -0.42040756 -0.20448199 -0.011845697 0.12163448 0.068863854
0.20607731 0.028276954 0.6160476 -0.62707776 -0.06294227 0.24964525 0.14757611 -1.0865489
0.4805206 0.3782122 0.0022857843 -0.20741287 0.1877139 0.37982824 -0.031801727 -0.101109944
0.47661778 0.35986513 -0.17178291 0.78795844 -0.17176329 0.5138171 -0.15815857 -0.058867723
0.339015 -0.08549411 -0.034677852 -0.09656591 -0.053736642 0.015965588 0.47532174 0.03496646
-0.46968985 -0.021392394 0.022130663 0.19481385 -0.014440804 -0.1158782 -0.18674232 0.20558216
-0.1591782 -0.36129847 0.18176296 0.06919862 -0.46545273 -0.05750305 0.39655417 -0.057504192
-0.00861829 -0.23008645 -0.11396963 0.17548221 0.04687844 0.20592944 -0.0086658 0.083762564
0.09711616 -0.004939296 -0.029532509 -0.062103216 -0.27893206 0.11868607 0.24637231 -0.7373819
-0.0982512 -0.00815092 0.4164066 -0.13366386 -0.11744476 -0.006748252 0.13249522 -0.05549659
-0.0684982 -0.015898107 0.7456757 0.52585715 -0.1250827 -0.15533674 -0.014053586 0.46355903
0.10097839 0.03996902 0.62819177 0.17978768 -0.07165052 0.64115566 0.07075105 0.5760958
0.19958839 0.24276464 0.44285932 -0.19274792 0.09196527 0.048108097 0.18270925 -0.001340123
-0.22933587 -0.4592312 0.25433218 -0.16969432 -0.1391109 -0.12037242 -0.010841063 0.051478293
-0.4590769 0.22178794 -0.013844962 -0.48897663 0.31783783 -0.34980536 -0.081504725 -0.07317124
-0.4561738 0.06982113 0.30307364 0.020819252 0.19250858 0.004941487 -0.57282865 0.09150174
-0.47348082 0.111720316 0.13929297 -0.20992967 0.35242033 -0.54366904 -0.1488213 -0.16641383
0.79873776 -0.11019749 0.048806876 -0.34477115 0.14762503 0.36928427 -0.22172056 -0.0015621935
0.2856243 -0.2916117 -0.07778122 -0.093857035 0.021288704 0.110544436 -0.3648136 0.22991832
-0.3526773 0.47801352 -0.06659833 -0.10022405 0.18514423 0.33292353 -0.24061012 0.53973323
-0.21079645 0.6014447 -0.5109753 0.41119492 0.42324796 0.25346053 -0.33749261 0.16312045
0.22424425 0.13637763 -0.2682444 -0.10535918 0.31669977 0.013330389 -0.015211906 -0.039940584
0.015172328 0.20999773 0.7818839 0.12931804 0.48831785 -0.5098365 -0.55192983 0.029854726
0.7997955 0.26559106 0.48099747 -0.47977495 -0.22311063 0.2689284 0.34978843 -0.43818468
0.1395798 0.43681931 -0.4692085 0.17658666 0.10522548 0.40934554 -0.019288495 -0.29666436
0.066399336 0.091818035 -0.16778642 -0.28964123 0.24224207 0.0989219 -0.3828567 0.44433016
00000000: 6f59 663e 28a2 febd dc17 623d e9ba 6cbe
00000010: b6dd 053e 8ed2 4d3e 36f5 15bf 57b6 76be
00000020: 4d06 9bbe 8e14 553d 5c49 f0bc 3800 1fbe
00000030: 32ab b2bc b738 3cbe 8d92 34be 4a95 293e
00000040: de17 463e a7f4 bebe 2ed4 013e 946f 25ba
00000050: 5a0f debe c1af c2bc 4d7c c23c 2440 41be
00000060: 4f15 8c3e ed51 583d 6298 0e3e 7ea0 c1bd
00000070: f0c9 1b3d 9304 9b3d 8368 eebb 397e 593d
00000080: f62d 0fbe d028 d8bd c991 5abc ac70 a7be
00000090: 2b04 97be d19b 1f3e fcc8 bb3e 5672 2c3d
000000a0: 5d3d 9cbd fbfd 25bc 57a9 0e3f 60cb aa3c
000000b0: ea05 bbbc 11d8 d63d 9b07 51be 1ea1 35be
000000c0: 8553 153e bca4 7f3d 17c2 2dbd a93f d7be
000000d0: ba63 51be 7414 42bc 801b f93d 7e08 8d3d
000000e0: ee05 533e 12a5 e73c 4cb5 1d3f 2b88 20bf
000000f0: e0e7 80bd 01a3 7f3e 311e 173e 0914 8bbf
00000100: cc06 f63e 08a5 c13e 19cd 153b 0a64 54be
00000110: 1338 403e d978 c23e 8742 02bd bb12 cfbd
00000120: 3f07 f43e 3e40 b83e dce7 2fbe a5b7 493f
00000130: b7e2 2fbe 8489 033f 52f4 21be 481f 71bd
00000140: 6093 ad3e 8917 afbd 5d0a 0ebd 59c4 c5bd
00000150: f41a 5cbd 44ca 823c 5f5d f33e fe38 0f3d
00000160: 307b f0be 1a3f afbc 5d4b b53c 487d 473e
00000170: 1f99 6cbc 8d51 edbd 6139 3fbe 2184 523e
00000180: 9cff 22be 1dfc b8be 1220 3a3e 02b8 8d3d
00000190: d24f eebe 5188 6bbd 2609 cb3e 8489 6bbd
000001a0: ba33 0dbc c89b 6bbe e968 e9bd 9cb1 333e
000001b0: 9b03 403d 2bdf 523e 00fb 0dbc b58b ab3d
000001c0: d6e4 c63d d1d9 a1bb 29ee f1bc f15f 7ebd
000001d0: 2fd0 8ebe af11 f33d 0649 7c3e 0fc5 3cbf
000001e0: ed37 c9bd 708b 05bc 3f33 d53e 2edf 08be
000001f0: e186 f0bd 7120 ddbb d4ac 073e 6450 63bd
00000200: c948 8cbd bf3c 82bc 9ae4 3e3f 939e 063f
00000210: ae15 00be 9810 1fbe 0341 66bc 9c57 ed3e
00000220: c2cd ce3d 8eb6 233d 2dd1 203f 431a 383e
00000230: 82bd 92bd c722 243f ede5 903d 047b 133f
00000240: e660 4c3e 4b97 783e 75be e23e b65f 45be
00000250: 4a58 bc3d ff0c 453d 2218 3b3e 11a7 afba
00000260: 06d7 6abe 5a20 ebbe d437 823e 59c4 2dbe
00000270: 1673 0ebe d185 f6bd b79e 31bc e7da 523d
00000280: 210c ebbe 611c 633e fbd5 62bc 255b fabe
00000290: a4bb a23e b019 b3be f3eb a6bd ceda 95bd
000002a0: 9d8f e9be 61fe 8e3d 782c 9b3e 238d aa3c
000002b0: f820 453e 33ec a13b e6a4 12bf 4465 bb3d
000002c0: 146c f2be 9fcd e43d d1a2 0e3e cef7 56be
000002d0: 7070 b43e e52d 0bbf 9c64 18be 6368 2abe
000002e0: 147a 4c3f 39af e1bd b8e9 473d d885 b0be
000002f0: 042b 173e d412 bd3e b70a 63be 84c2 ccba
00000300: 593d 923e 214e 95be c34b 9fbd 1e38 c0bd
00000310: a665 ae3c 1f65 e23d d9c8 babe b56f 6b3e
00000320: 1e92 b4be 30be f43e b564 88bd 4442 cdbd
00000330: 7396 3d3e f474 aa3e 8062 76be f52b 0a3f
00000340: 06db 57be 48f8 193f 47cf 02bf 2488 d23e
00000350: f5b3 d83e 94c5 813e d5cb acbe 0c09 273e
00000360: 49a0 653e 94a6 0b3e 5457 89be 8ec6 d7bd
00000370: 7926 a23e b467 5a3c 5c3b 79bc bd98 23bd
00000380: 5b95 783c a509 573e 8b29 483f f36b 043e
00000390: cc04 fa3e a584 02bf 464b 0dbf e691 f43c
000003a0: 66bf 4c3f 8dfb 873e 4d45 f63e 10a5 f5be
000003b0: 1d77 64be fcb0 893e 7817 b33e be59 e0be
000003c0: 02ee 0e3e c8a6 df3e 193c f0be 22d3 343e
000003d0: 7580 d73d bd95 d13e e802 9ebc 64e4 97be
000003e0: 60fc 873d 180b bc3d 34d0 2bbe db4b 94be
000003f0: 4e0e 783e 9197 ca3d cb05 c4be 3e7f e33e

network.0.bias f4 [32]
0.13718955 -0.26858068 0.43158263 -0.45365867 -0.82459086 -0.19300342 -0.2698322 0.55788755
0.36878967 -0.44422397 0.6214979 -0.23307954 0.62557864 -0.16384171 -0.38011238 -1.0480512
0.25936985 -0.20587635 0.66624206 0.52305984 -0.623665 0.35324705 -0.4334517 -0.76119184
-0.7784822 0.72890455 -0.122067794 -0.7209915 0.3093624 -0.4924973 0.6119357 0.66067535
00000000: 6b7b 0c3e 6883 89be 66f8 dc3e f345 e8be
00000010: 6318 53bf b0a2 45be 7227 8abe b8d1 0e3f
00000020: 00d2 bc3e 5371 e3be 7d1a 1f3f 67ac 6ebe
00000030: ec25 203f 1fc6 27be 179e c2be 8b26 86bf
00000040: 20cc 843e 40d1 52be d78e 2a3f 40e7 053f
00000050: 82a8 1fbf ccdc b43e 62ed ddbe 78dd 42bf
00000060: 9c4a 47bf 7d99 3a3f aefe f9bd e692 38bf
00000070: c064 9e3e 9b28 fcbe d1a7 1c3f 0522 293f

network.3.weight f4 [16, 32]
-0.07087433 0.039445654 1.0211923 -0.31803837 -0.015762249 0.19498262 -0.35781205 0.10411855
0.5595345 -0.04177845 0.3080408 0.06674025 -0.34847084 -0.52110225 -0.0066278875 -0.065446265
0.2478258 -0.06334577 0.3645811 0.11987651 0.040468667 0.6819049 -0.07830616 -0.2568011
-0.018297 0.4536096 -0.33233124 0.05940182 -0.20033647 -0.0122598745 0.14565332 0.03480456
0.06636674 0.102205835 -0.82265055 -0.06624056 0.07808313 0.12287678 0.04804827 -0.028229905
0.21582913 -0.015075674 0.3699849 0.029147262 -0.7790517 -0.20394444 0.1397733 0.012938604
0.28448156 0.07986869 -0.16857514 -1.1999246 0.24484031 0.3283578 -0.072512686 -0.47970736
0.059559338 -0.087545216 -0.40941158 0.025006251 0.09237246 0.015047028 0.074412555 0.025904393
0.22494304 0.19006103 -0.41846457 0.12067897 -0.005641805 0.25471073 -0.014385525 0.028326822
0.021269755 -0.682105 -0.78394544 -0.62531155 -0.67495996 -0.88695186 0.20207533 -0.31942433
0.27413067 0.0289983 0.06594229 0.27670148 0.37168235 -0.7306772 -0.7790866 0.25274298
-0.24329862 0.15048699 -0.32106438 -0.2840793 -0.30902067 0.11491791 -0.1653298 0.034050595
-0.17929688 0.007836902 1.0093689 0.03478215 0.30620614 0.15470093 0.011465228 -0.19936216
0.12948163 0.2870429 0.60720634 0.5559049 0.010328937 0.1072821 -0.0027373775 0.46947053
0.0020398742 0.11603327 0.23633361 -0.00469497 0.043396436 0.52956647 0.42894378 0.0024331296
0.26243424 -0.13141398 -0.101402335 0.28255197 -0.095529646 -0.0060863253 0.05404626 -0.07814269
0.021382727 -0.0051989346 -0.90099025 0.006934315 0.26543877 -0.06267825 0.073104694 0.26223743
0.117710434 0.8074931 0.2374816 0.71969545 -0.35471314 0.85881215 -0.09109603 0.2955481
-0.065068394 -0.07181677 -0.018684562 -0.6629936 -0.1637364 0.41842103 0.76008403 0.010520823
0.09145838 0.13171026 0.29035375 0.27591005 0.2157514 0.018962046 0.15505627 0.026816234
-0.02655241 0.18595901 -0.23692577 0.3372735 -0.075846314 0.06227855 0.25534448 -0.75474405
-0.54461217 -0.57587415 -0.30889955 -0.36639386 -0.35649163 -0.33052066 0.015111047 -0.22436182
0.15685742 0.01993537 -0.5337068 -0.49280682 0.29700226 -0.07963235 -0.3738597 -0.30569497
-0.29438186 -0.7590106 -0.1304496 -0.08785721 -0.02079291 0.13138531 0.13195412 -0.92591316
0.17254804 -0.07777565 0.86461115 -0.28600532 0.0561364 -0.028163012 -0.046285838 0.2392201
0.0030443731 -0.07650642 0.22050154 0.009737338 -0.15578058 -0.012465777 -0.048576303 0.031579234
-0.16911612 -0.059352115 0.62954634 0.26869678 -0.050105926 0.5809761 -0.07213822 0.3850196
0.079531774 0.21209264 0.77785033 0.029281884 0.05286091 0.031299878 0.027040184 0.05851389
0.1916617 -0.1620048 -0.5274659 -0.08971218 0.02123141 -0.21532017 0.19109619 0.15599559
-0.26131925 0.0058644325 -0.41293094 -0.0147850355 -0.081892945 0.13130264 -0.048450578 -0.011451726
-0.44118813 0.16526206 0.5138585 0.93521166 -0.33184305 -0.61437964 0.04699804 0.038115013
0.011169623 0.11660204 0.80638653 0.053711187 0.23703577 -0.01063609 -0.23873892 0.1628369
00000000: 9026 91bd c491 213d 6eb6 823f edd5 a2be
00000010: d51f 81bc 86a9 473e 2433 b7be 1b3c d53d
00000020: a73d 0f3f e11f 2bbd 86b7 9d3e 1daf 883d
00000030: c56a b2be f566 05bf c02e d9bb b108 86bd
00000040: 0cc6 7d3e 6dbb 81bd 60aa ba3e d181 f53d
00000050: 79c2 253d 5291 2e3f fb5e a0bd 6f7b 83be
00000060: 97e3 95bc 843f e83e 5227 aabe 534f 733d
00000070: 0125 4dbe a4dd 48bc 2526 153e 3a8f 0e3d
00000080: 49eb 873d 4b51 d13d 3a99 52bf 21a9 87bd
00000090: 0cea 9f3d d2a6 fb3d 43ce 443d 6742 e7bc
000000a0: 5002 5d3e f6ff 76bc a96e bd3e 3dc6 ee3c
000000b0: ef6f 47bf d0d6 50be bb20 0f3e 70fc 533c
000000c0: 91a7 913e 3292 a33d f69e 2cbe 2197 99bf
000000d0: 6bb7 7a3e 831e a83e 8881 94bd 349c f5be
000000e0: 7ef4 733d e84a b3bd 659e d1be e9d9 cc3c
000000f0: c62d bd3d cf87 763c 9c65 983d 7335 d43c
00000100: 7857 663e 5c9f 423e fd40 d6be 8926 f73d
00000110: e4de b8bb 7269 823e 44b1 6bbc a70d e83c
00000120: e93d ae3c 6f9e 2ebf a6b0 48bf 6b14 20bf
00000130: 2dca 2cbf 470f 63bf d6ec 4e3e 968b a3be
00000140: db5a 8c3e d88d ed3c c00c 873d d1ab 8d3e
00000150: 264d be3e a90d 3bbf 3872 47bf 8767 813e
00000160: 4623 79be 4319 1a3e 8d62 a4be d872 91be
00000170: f537 9ebe 155a eb3d 374c 29be a378 0b3d
00000180: 9a99 37be 5966 003c 0033 813f ba77 0e3d
00000190: 0dc7 9c3e ec69 1e3e a7d8 3b3c 9825 4cbe
000001a0: d596 043e 49f7 923e e071 1b3f c94f 0e3f
000001b0: b43a 293c b8b6 db3d 9365 33bb 715e f03e
000001c0: 69af 053b daa2 ed3d 7001 723e 43d8 99bb
000001d0: 76c0 313d ab91 073f 859e db3e 2475 1f3b
000001e0: c85d 863e 6391 06be 07ac cfbd a7aa 903e
000001f0: 0ca5 c3bd cc6f c7bb 9c5f 5d3d 4609 a0bd
00000200: d42a af3c d35b aabb 4ca7 66bf 4039 e33b
00000210: 97e7 873e 745d 80bd eab7 953d fc43 863e
00000220: 2b12 f13d deb7 4e3f 602e 733e f63d 383f
00000230: f69c b5be 1ddb 5b3f 8e90 babd 1552 973e
00000240: 9442 85bd ac14 93bd 5e10 99bc f3b9 29bf
00000250: 84aa 27be 483b d63e de94 423f 885f 2c3c
00000260: 884e bb3d 0edf 063e 3fa9 943e 1544 8d3e
00000270: efed 5c3e 4b56 9b3c 12c7 1e3e b8ad db3c
00000280: 7184 d9bc 0a6c 3e3e ab9c 72be 1daf ac3e
00000290: 5055 9bbd cb17 7f3d 83bc 823e e836 41bf
000002a0: b46b 0bbf 7d6c 13bf 1528 9ebe fa97 bbbe
000002b0: 1286 b6be 013a a9be 5394 773c 1bbf 65be
000002c0: 3b9f 203e 804f a33c 02a1 08bf 2d51 fcbe
000002d0: ae10 983e 4916 a3bd 8a6a bfbe 0d84 9cbe
000002e0: 38b9 96be 854e 42bf 9494 05be 7bee b3bd
000002f0: e555 aabc df89 063e fb1e 073e a508 6dbf
00000300: 6fb0 303e d748 9fbd 2857 5d3f 4a6f 92be
00000310: 48ef 653d 1eb6 e6bc 3896 3dbd 1df6 743e
00000320: 1b84 473b 66af 9cbd 28cb 613e 5b89 1f3c
00000330: f284 1fbe 423d 4cbc f2f7 46bd 3a59 013d
00000340: c72c 2dbe 341b 73bd f329 213f a092 893e
00000350: df3b 4dbd daba 143f 34bd 93bd 4a21 c53e
00000360: 8ee1 a23d d02e 593e 3321 473f 90e0 ef3c
00000370: ae84 583d 4d34 003d 6083 dd3c 43ac 6f3d
00000380: f742 443e 96e4 25be 0108 07bf 05bb b7bd
00000390: 7eed ad3c e47c 5cbe b8ae 433e 4fbd 1f3e
000003a0: a3cb 85be 6d2a c03b af6b d3be ef3c 72bc
000003b0: 7db7 a7bd 3374 063e 1d74 46bd 05a0 3bbc
000003c0: 69e3 e1be 753a 293e 3b8c 033f 086a 6f3f
000003d0: 55e7 a9be fc47 1dbf 0481 403d 7d1e 1c3d
000003e0: cb00 373c 0dcd ee3d 596f 4e3f 4300 5c3d
000003f0: 81b9 723e ff42 2ebc fa77 74be b7be 263e

network.3.bias f4 [16]
0.5978755 0.008892239 0.2457797 -0.38686278 -0.13807559 -0.054310963 0.03918085 0.11216371
0.25984553 0.17872514 0.6972865 -0.5329707 0.557223 -0.62319356 0.46987873 0.05794489
00000000: 5e0e 193f c1b0 113c acad 7b3e e112 c6be
00000010: b063 0dbe 2c75 5ebd 197c 203d 16b6 e53d
00000020: 790a 853e b903 373e 5e81 323f c570 08bf
00000030: 2ba6 0e3f 9d89 1fbf f293 f03e 9f57 6d3d

network.6.weight f4 [8, 16]
-0.15686242 0.31189704 -0.29610154 0.15308668 0.15845335 -0.02676525 -0.3785638 -0.3591729
0.023214139 -0.43969756 0.06467375 0.16619752 -0.36070988 0.095766105 0.11476387 0.097622216
-0.017754477 -0.5102057 -0.36943328 -0.37948948 -0.01347345 -0.30777383 -0.38771778 -0.020026546
0.316385 0.56578445 0.28368637 -0.5541798 0.30261964 -0.35624558 0.3180748 -0.52038205
0.38966757 -0.45286188 0.6209099 -0.7002408 -0.5701494 -0.27691093 0.2107742 0.28561956
0.4039583 -0.5366342 -0.63399583 -0.6534649 0.12009155 -0.6681047 0.06803266 0.19152255
-0.42592987 -0.015191643 -0.16934147 0.19488992 0.19457474 -0.10193507 -0.034606364 -0.4855923
0.23677021 -0.4451036 -0.7585393 0.21093376 -0.8450892 0.31596765 -0.29037157 0.15959558
-0.3949805 -0.34492433 0.10662044 0.16107462 0.18035078 -0.09561053 0.35024112 0.5799554
-0.2741818 -0.3891621 -0.51430297 0.20377731 -0.35494143 -0.25523165 0.067585245 0.11656694
0.3176636 0.2898886 -0.8000756 0.089521505 0.13737462 -0.22165363 0.08349426 -0.49720824
0.18110749 0.12325257 0.09156045 0.07269748 0.1653282 -0.3970563 -0.024255324 0.09697223
-0.16903165 0.3765474 0.40660906 -0.84415317 -0.76852584 0.9320471 -0.55314314 -1.2711971
0.014891432 0.55166733 0.11745293 -0.6314662 -0.87094516 0.44563434 0.3691325 -0.21356994
0.44394067 -0.40474343 -0.4003456 0.24182037 -0.47730178 -0.3922973 0.33510375 -0.38047844
-0.491867 -0.4876427 0.3329157 -0.4721775 0.37662563 -0.43530244 -0.92893714 -0.7987274
00000000: 8ba0 20be f8b0 9f3e 9f9a 97be c1c2 1c3e
00000010: 9841 223e cc42 dbbc 1dd3 c1be 83e5 b7be
00000020: 942b be3c 0a20 e1be ac73 843d af2f 2a3e
00000030: f7ae b8be 0521 c43d 5209 eb3d 28ee c73d
00000040: d671 91bc d79c 02bf 5c26 bdbe 724c c2be
00000050: bfbf 5cbc 8894 9dbe f282 c6be b60e a4bc
00000060: 37fd a13e 40d7 103f 573f 913e bade 0dbf
00000070: f6f0 9a3e d265 b6be b3da a23e c237 05bf
00000080: 8282 c73e 83dd e7be f4f3 1e3f fb42 33bf
00000090: 50f5 11bf 45c7 8dbe 31d5 573e ba3c 923e
000000a0: 9fd3 ce3e dc60 09bf 8d4d 22bf 7a49 27bf
000000b0: 8ff2 f53d e908 2bbf b554 8b3d 7d1e 443e
000000c0: 7b13 dabe 5ee6 78bc da67 2dbe 3991 473e
000000d0: 9a3e 473e 55c3 d0bd 67bf 0dbd 8e9f f8be
000000e0: e473 723e 9ee4 e3be a22f 42bf 05ff 573e
000000f0: c457 58bf 83c6 a13e 95ab 94be 066d 233e
00000100: e23a cabe ec99 b0be d15b da3d bff0 243e
00000110: e0ad 383e 74cf c3bd ce52 b33e f577 143f
00000120: 8f61 8cbe 4140 c7be 5ca9 03bf 00ab 503e
00000130: e2ba b5be b9ad 82be 226a 8a3d a6ba ee3d
00000140: cea4 a23e 476c 943e c1d1 4cbf 0d57 b73d
00000150: efab 0c3e 2bf9 62be 0aff aa3d 1492 febe
00000160: 3e74 393e d86b fc3d 0c84 bb3d 6be2 943d
00000170: cc4b 293e f74a cbbe 1ab3 c6bc 6099 c63d
00000180: a216 2dbe d2ca c03e 102f d03e 6c1a 58bf
00000190: 1cbe 44bf a49a 6e3f ca9a 0dbf 96b6 a2bf
000001a0: 31fb 733c 123a 0d3f 298b f03d c5a7 21bf
000001b0: 43f6 5ebf 2f2a e43e effe bc3e 14b2 5abe
000001c0: 314c e33e 883a cfbe 19fa ccbe c29f 773e
000001d0: e660 f4be 31db c8be b892 ab3e 12ce c2be
000001e0: fed5 fbbe 4eac f9be ed73 aa3e 40c1 f1be
000001f0: 13d5 c03e f6df debe d3ce 6dbf 6679 4cbf

network.6.bias f4 [8]
-0.0833642 0.663787 0.23298597 -0.69613093 -0.21267061 -0.02907235 -0.35348728 -0.0053747357
00000000: daba aabd f2ed 293f e093 6e3e a335 32bf
00000010: 53c6 59be 2329 eebc 49fc b4be 8d1e b0bb
